…
      "cell_type": "code",
      "execution_count": null,
      "metadata": {
        "id": "3HQQCI_AoraZ",
        "outputId": "f006afd2-fb13-4173-de17-a81f6508dcb0"
      },
      "outputs": [
        {
          "name": "stdout",
          "output_type": "stream",
          "text": [
            "Model: \"sequential_1\"\n",
            "_________________________________________________________________\n",
            "Layer (type)                 Output Shape              Param #   \n",
            "=================================================================\n",
            "conv2d_1 (Conv2D)            (None, 75, 100, 16)       448       \n",
            "_________________________________________________________________\n",
            "conv2d_2 (Conv2D)            (None, 73, 98, 16)        2320      \n",
            "_________________________________________________________________\n",
            "max_pooling2d_1 (MaxPooling2 (None, 36, 49, 16)        0         \n",
            "_________________________________________________________________\n",
            "conv2d_3 (Conv2D)            (None, 34, 47, 32)        4640      \n",
            "_________________________________________________________________\n",
            "conv2d_4 (Conv2D)            (None, 32, 45, 32)        9248      \n",
            "_________________________________________________________________\n",
            "max_pooling2d_2 (MaxPooling2 (None, 16, 22, 32)        0         \n",
            "_________________________________________________________________\n",
            "conv2d_5 (Conv2D)            (None, 14, 20, 64)        18496     \n",
            "_________________________________________________________________\n",
            "max_pooling2d_3 (MaxPooling2 (None, 7, 10, 64)         0         \n",
            "_________________________________________________________________\n",
            "conv2d_6 (Conv2D)            (None, 5, 8, 64)          36928     \n",
            "_________________________________________________________________\n",
            "flatten_1 (Flatten)          (None, 2560)              0         \n",
            "_________________________________________________________________\n",
            "dense_1 (Dense)              (None, 128)               327808    \n",
            "_________________________________________________________________\n",
            "dropout_1 (Dropout)          (None, 128)               0         \n",
            "_________________________________________________________________\n",
            "dense_2 (Dense)              (None, 128)               16512     \n",
            "_________________________________________________________________\n",
            "dropout_2 (Dropout)          (None, 128)               0         \n",
            "_________________________________________________________________\n",
            "dense_3 (Dense)              (None, 128)               16512     \n",
            "_________________________________________________________________\n",
            "dense_4 (Dense)              (None, 62)                7998      \n",
            "_________________________________________________________________\n",
            "dense_5 (Dense)              (None, 7)                 441       \n",
            "=================================================================\n",
            "Total params: 441,351\n",
            "Trainable params: 441,351\n",
            "Non-trainable params: 0\n",
            "_________________________________________________________________\n"
          ]
        }
      ],
      "source": [
        "model = Sequential()\n",
        "model.add(Conv2D(16,(3,3),input_shape=(75,100,3),padding= \"same\",activation=\"relu\"))\n",
…
      "cell_type": "code",
      "execution_count": null,
      "metadata": {
        "id": "PuXCsqVxora_",
        "outputId": "9ac98291-8556-4fe7-d5ef-1ca813b860b0"
      },
      "outputs": [
        {
          "name": "stdout",
          "output_type": "stream",
          "text": [
            "Model: \"sequential_15\"\n",
            "_________________________________________________________________\n",
            "Layer (type)                 Output Shape              Param #   \n",
            "=================================================================\n",
            "dense_117 (Dense)            (None, 256)               602368    \n",
            "_________________________________________________________________\n",
            "dense_118 (Dense)            (None, 128)               32896     \n",
            "_________________________________________________________________\n",
            "dense_119 (Dense)            (None, 128)               16512     \n",
            "_________________________________________________________________\n",
            "dense_120 (Dense)            (None, 128)               16512     \n",
            "_________________________________________________________________\n",
            "dense_121 (Dense)            (None, 128)               16512     \n",
            "_________________________________________________________________\n",
            "dense_122 (Dense)            (None, 128)               16512     \n",
            "_________________________________________________________________\n",
            "dense_123 (Dense)            (None, 128)               16512     \n",
            "_________________________________________________________________\n",
            "dense_124 (Dense)            (None, 128)               16512     \n",
            "_________________________________________________________________\n",
            "dense_125 (Dense)            (None, 128)               16512     \n",
            "_________________________________________________________________\n",
            "dense_126 (Dense)            (None, 128)               16512     \n",
            "_________________________________________________________________\n",
            "dense_127 (Dense)            (None, 128)               16512     \n",
            "_________________________________________________________________\n",
            "dense_128 (Dense)            (None, 128)               16512     \n",
            "_________________________________________________________________\n",
            "dense_129 (Dense)            (None, 62)                7998      \n",
            "_________________________________________________________________\n",
            "dense_130 (Dense)            (None, 7)                 441       \n",
            "=================================================================\n",
            "Total params: 808,823\n",
            "Trainable params: 808,823\n",
            "Non-trainable params: 0\n",
            "_________________________________________________________________\n"
          ]
        }
      ],
      "source": [
        "model = Sequential()\n",
        "model.add(Dense(256,activation=\"relu\",input_shape=[2352]))\n",
…
